ABP_model.tflite (tflite, 183060 bytes, 70 tensors)

sequential_3/dense_23/BiasAdd/ReadVariableOp f4 [8]
00000000: 47ac 8dbd 9a7a c13f f0fb 9e3e f43a 983d
00000010: aced c5be eabe acbf bc69 a13d f001 a53d
-0.06917625 1.511554 0.31051588 0.074331194 -0.38657892 -1.3495762 0.07881495 0.0805701

sequential_3/dense_22/BiasAdd/ReadVariableOp f4 [128]
00000000: 2302 26bf 4b88 d0be 9026 a1be e1f8 91bf
00000010: 90f8 f4be 43e4 babe 48d3 3fbf f2e2 5fbf
00000020: d049 a1be 8fb8 6fbe 6b39 b5be ecec 9ebf
00000030: 2338 083f 4dba 80be 9794 0ebf 110d 5cbf
00000040: b3e0 eabe 8c22 21bf 7727 cebe 64e5 c6bf
00000050: 017e 01bf 9d40 d3bf 8d1b 9cbe e606 05bf
00000060: 7c1d dbbe 0562 13bf 682b 33bf 76ae 48bf
00000070: 7c22 593d e4da 09bf 89ef 3abf 2890 66bf
00000080: f078 8ebe 45c7 4abf 3163 3abf cc39 afbf
00000090: bf32 a3bf 796d 41bf 8d5f 3ebf c3b1 9e3e
000000a0: cffc 09bf 2d84 efbe 4364 1abf 2bc4 efbe
000000b0: 3b42 2cbf 4d37 54bf 7f0c f9be 1bb8 5fbf
000000c0: 3f24 ecbe f8d1 bdbe 6386 acbe cf57 3dbf
000000d0: 969a 42bf a3ee 34bf 9fd4 9abe 1af6 b1be
000000e0: 5c87 1cbf 23b1 1dbe 7e9a f8be 8bb5 7abf
000000f0: 77dd cdbf 738d 39bf d883 32bf 8595 2fbf
00000100: f234 9cbe 8800 dbbe 98a9 00bf a3ae 71bf
00000110: f89c 46bf 90c7 69bf 1e66 a2bf bdef eebe
00000120: ebd9 04bf bbb1 07bf 7ef9 27bf 7c99 02bf
00000130: 85c6 48bf 8b56 2cbf 7af1 acbe ca9c 1bbf
00000140: d4f6 27bf 89b9 91be dea6 a0bf b202 aebe
00000150: 43ba 2abf bb26 e5be bed2 83be 617b babf
00000160: 9e2a e7be c0e5 d83d 1239 32bf e7ee 863d
00000170: 5b36 2abf c803 69bf dec2 0c3e fffa a6be
00000180: 870b a03e 5ca0 c3be f06b 91bf 8dd3 c2be
00000190: 8ba6 a9be 4149 f8be e4de d53e fb85 59be
000001a0: 9e6e 3bbf 7a63 043d 5566 57bf 792e d8be
000001b0: 54a1 1abf d796 adbf 0668 3fbe 4f4d 85bf
000001c0: 95c1 0cbf 3a7d 2bbf baea b8bf aeb4 c0be
000001d0: 8fc4 20bf 8352 36bf 7472 d9be 4bb2 1dbf
000001e0: b592 2dbf 3979 bfbe 6cf9 0cc0 eb92 d7bf
000001f0: ef72 50bf 358c 4bbe e3d9 bebd 8196 66be
-0.6484701 -0.40728983 -0.31474733 -1.1404077 -0.47845888 -0.36502275 -0.74931765 -0.87455666
-0.31501627 -0.23410247 -0.3539537 -1.2416053 0.5321066 -0.25142136 -0.5569548 -0.8595744
-0.45874557 -0.6294334 -0.40264484 -1.5538754 -0.5058289 -1.6504093 -0.3048977 -0.5196365
-0.42795932 -0.5757144 -0.6998811 -0.78391206 0.053011402 -0.53849626 -0.7302175 -0.90063715
-0.27826643 -0.7921031 -0.72807604 -1.3689513 -1.2749861 -0.75557667 -0.7436455 0.30994996
-0.5390138 -0.4678053 -0.6030924 -0.46829352 -0.6728856 -0.8289688 -0.48642346 -0.873903
-0.46121404 -0.37074256 -0.3369628 -0.7396211 -0.7601713 -0.7067663 -0.30240342 -0.34758073
-0.6114404 -0.15399604 -0.48555368 -0.9793326 -1.6083211 -0.7248146 -0.6973243 -0.68587524
-0.30509144 -0.42773843 -0.5025878 -0.944071 -0.77583265 -0.91320133 -1.2687414 -0.4666728
-0.51895016 -0.5300557 -0.6561507 -0.5101545 -0.78427917 -0.67319554 -0.33777982 -0.60786116
-0.65611005 -0.28461865 -1.2550924 -0.3398643 -0.6669046 -0.44756112 -0.2574672 -1.4568902
-0.45149702 0.10590696 -0.6961833 0.06588536 -0.6648919 -0.91021395 0.13746211 -0.3261337
0.31258795 -0.38208282 -1.1361065 -0.38052025 -0.33134875 -0.48493388 0.41771615 -0.21242516
-0.73215663 0.03232143 -0.8414052 -0.42222956 -0.6040242 -1.3561658 -0.18692026 -1.0414218
-0.5498288 -0.66987956 -1.4446633 -0.37637848 -0.62799925 -0.7121965 -0.42470133 -0.6160018
-0.6780198 -0.37397173 -2.2027235 -1.6841711 -0.81425375 -0.19877703 -0.09318902 -0.2251835

sample_multi_head_attention_3/dense_21/BiasAdd/ReadVariableOp f4 [8]
00000000: 445b 753f 7f2b 1f40 d610 6bbf f59a f4bd
00000010: c6a1 5e3f 8a1e c8bf a9a8 933f 695c a93e
0.95842385 2.4870298 -0.91822565 -0.11943618 0.86965597 -1.563432 1.1535846 0.33078316

sample_multi_head_attention_3/dense_20/BiasAdd/ReadVariableOp f4 [8]
00000000: 906d a1be 59a9 793e 1c10 7f3e 8766 be3d
00000010: 7086 73be 9988 9b3e 3323 67be b3d5 b4bd
-0.31528902 0.24381007 0.24908489 0.09296899 -0.23781753 0.30377653 -0.22572021 -0.088298224

sample_multi_head_attention_3/dense_19/BiasAdd/ReadVariableOp f4 [8]
00000000: dc41 6a37 608c 45b8 c016 7bb9 2bcb 68b9
00000010: 774a 5739 be9c 8135 2bc1 5db8 56f8 cab8
1.3962821e-05 -4.7099194e-05 -0.000239457 -0.0002220093 0.00020531738 9.656867e-07 -5.2870408e-05 -9.678367e-05

sample_multi_head_attention_3/dense_18/BiasAdd/ReadVariableOp f4 [8]
00000000: 67ff 193f 017d 11be cd6a 17bf ee55 fbbd
00000010: 65d9 b83c 39e6 183e 2b11 fa3e e980 cabd
0.6015534 -0.14207841 -0.5914734 -0.12272249 0.0225646 0.14931573 0.48841223 -0.09887869

layer_normalization_7/batchnorm/ReadVariableOp f4 [8]
00000000: f880 05bc 6b2f 31bb 7342 f1ba b56d 18bb
00000010: b716 f73b a745 073b ded3 a63b 0f7e f13b
-0.008148424 -0.002703632 -0.0018406644 -0.002325875 0.0075405496 0.0020640881 0.0050911745 0.0073697637

layer_normalization_7/batchnorm/mul/ReadVariableOp f4 [8]
00000000: b350 ce3d d453 583a 6bce a83a 68b2 0e3e
00000010: bf86 12bc 28a4 32bb 1daa 4abc c8c5 04bd
0.10073986 0.00082522375 0.00128789 0.13935244 -0.008943259 -0.002725849 -0.01236966 -0.03241518

layer_normalization_6/batchnorm/ReadVariableOp f4 [8]
00000000: 52e4 033f d978 5640 95b7 583f 0b45 b13c
00000010: 4e00 783f 647a 89c0 dcfd c73e f6ac d83f
0.51520264 3.351126 0.84655124 0.021639368 0.96875465 -4.2961903 0.39060867 1.6927783

layer_normalization_6/batchnorm/mul/ReadVariableOp f4 [8]
00000000: 6f3e 943f 3f1d 0c40 8f48 a63f 0393 823f
00000010: 3226 873f 92bf 6840 e624 603f 6357 5f3f
1.1581553 2.189285 1.2990893 1.0201114 1.0558531 3.6366925 0.875563 0.87242717

sequential_2/dense_17/BiasAdd/ReadVariableOp f4 [8]
00000000: f45c bfbe e9f8 2bc0 c207 ab3e 031c 9ebc
00000010: 415e c8bd d9b9 813f 3be0 693e bb91 40bf
-0.37375605 -2.6870673 0.33404356 -0.019300466 -0.097836025 1.0134841 0.22839443 -0.7522237

sequential_2/dense_16/BiasAdd/ReadVariableOp f4 [128]
00000000: f392 d6bf 913f 9ebf a3ca f8bf a999 8abf
00000010: 972d 9abe 10e6 c5bf 834b 6ebe 9f4e ffbf
00000020: 101b 2abf cd68 30c0 9bef b3bf 76aa 0dc0
00000030: 98ff afbf 3ada 15c0 6590 2ac0 2f97 9abf
00000040: 7689 cfbf 7f3a a5bf c63c 23bf dc3d 37bf
00000050: dda9 b7bf ab2d 3ebe 3fbe 8dbf 6308 b5bf
00000060: 59d8 1cc0 dcf3 4ac0 3ae2 b9bf 14e2 a2bf
00000070: 3da3 17bf 9749 d5bf b4bf 03c0 1a8a d1bf
00000080: d16f a8be 8f22 75be ba72 d2bf b3db 4abf
00000090: eb31 d4bf 2679 c8be 7c15 7c3f 31b5 94bf
000000a0: e6be eebf 8275 81be 0220 10c0 a166 1dc0
000000b0: a355 ddbf b5bc 9fbf 560c acbe 94b1 b7bf
000000c0: 47eb 6dc0 1360 18c0 4342 bbbf beef e7bf
000000d0: efd3 8cbe 8c0c 1abc af05 62bf ef90 13bf
000000e0: 9a9f 88be 85bc 903d 96a0 113e 7fed c1bf
000000f0: 77da a8be ea35 9fbf c494 1ec0 a69a fb3e
00000100: e690 1bbf c053 8cbf ad46 a4bf c97c a0be
00000110: 4a0e bbbe 5ae8 14bf 70d0 18bf b61e 53c0
00000120: 57b7 81bf fc3d 64bf 7f78 74bf fc95 43c0
00000130: 40b8 0ac0 1749 bebf db77 38bf f489 99bf
00000140: 1756 42bf 177a fcbd 8a79 1dbd 27bc 04bf
00000150: 66f0 0ec0 8cc4 eebe 26bd 02c0 f720 eebf
00000160: d38d fbbf 25dd fcbf 6133 5cbf 3552 f4bf
00000170: 6686 07c0 43e2 0dbf e070 09c0 5f51 dbbf
00000180: 39b7 19c0 6a29 14c0 b085 9cbf 78fc f6be
00000190: 2a17 8c3e 70aa e2be 1ac9 1abf 8108 a6bf
000001a0: 86eb 1dc0 77d9 173e 1d06 f6bf f4b3 d9bf
000001b0: 910e 2ac0 72b1 0cc0 f425 c9bf de2c 05c0
000001c0: f1d6 7bbe 4641 13c0 df2b 0fbf 1e82 00bf
000001d0: 65b3 e0be ffa6 82bf d066 a4be 7782 0bc0
000001e0: 28ee a0bf 5aca 91bf 8d7c 24bf 8dc8 12bf
000001f0: 110c 87bf fbbd 09c0 7679 00c0 a8be 21bf
-1.6763595 -1.2363149 -1.943684 -1.0828143 -0.30112907 -1.5460835 -0.23270993 -1.9945868
-0.66447544 -2.7563965 -1.4057497 -2.213529 -1.3749876 -2.3414445 -2.6650631 -1.2077388
-1.6213825 -1.2908477 -0.6376461 -0.71578765 -1.4348713 -0.18572108 -1.1073684 -1.4143184
-2.4507048 -3.171134 -1.4522164 -1.2725244 -0.59233457 -1.6663083 -2.0585756 -1.637027
-0.3289781 -0.23938964 -1.6441262 -0.79241484 -1.6577734 -0.3915493 0.9847028 -1.1617795
-1.8652008 -0.25284964 -2.2519536 -2.459389 -1.7291759 -1.2479464 -0.33603162 -1.4351068
-3.7174852 -2.380864 -1.4629596 -1.8120039 -0.27505443 -0.0094024055 -0.8828992 -0.57643026
-0.26684266 0.07067207 0.14221415 -1.5150603 -0.32979175 -1.2438328 -2.47783 0.49141425
-0.6076797 -1.0963058 -1.2834069 -0.31345204 -0.3653434 -0.5816704 -0.5969305 -3.2987494
-1.0134076 -0.8915708 -0.9549636 -3.0560293 -2.1674957 -1.4866055 -0.72057885 -1.1995225
-0.7591261 -0.12327974 -0.038445987 -0.518496 -2.2334228 -0.46634328 -2.0427947 -1.860381
-1.9652656 -1.9754988 -0.860159 -1.9087588 -2.117578 -0.55423373 -2.1475143 -1.7134207
-2.401808 -2.3150277 -1.2228298 -0.48239493 0.27361423 -0.44270658 -0.60463107 -1.2971345
-2.4675002 0.1482905 -1.9220616 -1.7008042 -2.657139 -2.1983304 -1.5714707 -2.0808635
-0.24593712 -2.300859 -0.55926317 -0.50198543 -0.43886867 -1.0207213 -0.3210969 -2.179838
-1.257268 -1.1389878 -0.6425255 -0.57337266 -1.0550557 -2.1522205 -2.0074134 -0.63181543

sample_multi_head_attention_2/dense_15/BiasAdd/ReadVariableOp f4 [8]
00000000: fd8c b73e 8767 e33e fc54 dc3e 1d21 993e
00000010: 4309 a3bc 766f 01be db71 873e 049a fd3d
0.35849753 0.44414923 0.43033588 0.29908076 -0.019901877 -0.12640175 0.26454052 0.12382892

sample_multi_head_attention_2/dense_14/BiasAdd/ReadVariableOp f4 [8]
00000000: 6962 13be 6496 853d ade6 873d a158 593e
00000010: 0799 493d ff8f b4bd 7060 013e 9584 243d
-0.14393009 0.06522825 0.06635795 0.21225215 0.049218204 -0.088165276 0.12634444 0.040165503

sample_multi_head_attention_2/dense_13/BiasAdd/ReadVariableOp f4 [8]
00000000: 06da 72b9 67c1 2b3a 5beb b239 3901 1d39
00000010: 7d9a ef39 23b8 8cb9 0d66 2bb8 78d0 a2b9
-0.00023160139 0.00065519515 0.0003412616 0.00014973142 0.00045700735 -0.00026840073 -4.086462e-05 -0.0003105437

sample_multi_head_attention_2/dense_12/BiasAdd/ReadVariableOp f4 [8]
00000000: 187f cabe 1da4 063b 6e7a 16bd 2f5c 983e
00000010: a28c 823e 6a5a 9d3d bf0e b3be 0b7a 143e
-0.3955009 0.0020544596 -0.03673785 0.2975783 0.2549792 0.07683261 -0.34972188 0.1449968

layer_normalization_5/batchnorm/ReadVariableOp f4 [8]
00000000: 4ff8 a83d df56 81bb e1b1 77be 8963 44bb
00000010: e750 99be e3fe a33e 98d1 913d 796b 4f3e
0.08250486 -0.0039471234 -0.24188949 -0.0029966554 -0.29944536 0.320304 0.07120055 0.20255841

layer_normalization_5/batchnorm/mul/ReadVariableOp f4 [8]
00000000: 2a2e fc3e a08f d03e 2b64 703f b27c 3a3f
00000010: fe55 e23e f68f 323f d56e 583f 7448 383f
0.4925397 0.40734577 0.93902844 0.7284652 0.44206232 0.69750917 0.84544116 0.71985555

layer_normalization_4/batchnorm/ReadVariableOp f4 [8]
00000000: aef3 b9be b0c9 8b3f f57a 8d3e 6e3e bcbc
00000010: 57d9 ec3f 1e41 54c0 ec99 48bf 4456 bdbe
-0.36318725 1.0920925 0.2763287 -0.022978988 1.8503827 -3.3164744 -0.78359866 -0.36979878

layer_normalization_4/batchnorm/mul/ReadVariableOp f4 [8]
00000000: a2e0 2d3f 78bc d23f dea5 ba3f 8466 a93f
00000010: f763 b33f 25ce 0340 86d1 9f3f a971 cc3f
0.6792089 1.6463766 1.4581869 1.323441 1.4014882 2.059457 1.2485816 1.5972186

sequential_1/dense_11/BiasAdd/ReadVariableOp f4 [8]
00000000: 81cd a0bf e1d6 08bf b95a e43e be82 f6bc
00000010: 9683 b1bf c1ba 1e3f 596d 3d3f 90a3 6bbe
-1.2562715 -0.5345288 0.44600466 -0.03009164 -1.3868282 0.62003714 0.73994976 -0.23011613

sequential_1/dense_10/BiasAdd/ReadVariableOp f4 [128]
00000000: 97ae 0ac0 0d1f 8ebf 01e8 f4bf fe42 e0bf
00000010: c9aa 8ebf 71e9 cbbf 2866 0fc0 a72a 18c0
00000020: 585f 40c0 655a f9bf 04a1 dbbe 7b0c f7bf
00000030: 69ef 04c0 6462 20bf c0b4 3ec0 e65d c7bf
00000040: 3720 16c0 d138 ccbf 7cdb 9cbf 2fba 00bf
00000050: 1915 14c0 0f2a 4bc0 bd0e 7bbf d7cb d4bf
00000060: d2e9 ecbf b780 97bf b353 bdbf a490 e1bf
00000070: 3370 eabf d4ec 45c0 7b75 00c0 d68d 40c0
00000080: 993f 45c0 b887 c6be 79bb a5bf 782a 95bf
00000090: 87af abbf b1ee bcbe 74f6 28bf ecd6 64bf
000000a0: c292 14c0 6fd1 c6bf 2011 c9bf d508 a5bf
000000b0: bce0 cabf 5d84 4cc0 f415 af3d 2a9c 89bf
000000c0: fc0b 01c0 60d1 21c0 32f3 06c0 978d aa3d
000000d0: 4e9c 15c0 20a3 d9bf cafa 1ac0 ba80 35be
000000e0: a42c 71c0 98a5 21bf 3f0c 1fc0 caf3 24bf
000000f0: 928f 27c0 5a2e 88bf d760 0bc0 f65c dfbf
00000100: e4cc 70bf 9afd ddbf fc71 b8bf 1762 13c0
00000110: c88b 1fbf 3ada 07c0 6d7b e5bf 7f3b 8cbf
00000120: a97e 2ac0 09b7 adbe b2a6 8fbf 8e83 30c0
00000130: 29a1 eebe 454a 02bf eeee 07c0 2ee7 2fbf
00000140: 07ab d3bf 0880 0ac0 1174 00c0 9787 31bf
00000150: f17f 0fc0 9142 f2bf 36de 35bf f94a 4abf
00000160: 0fa0 e2bf 2643 16c0 b7d9 65bf f5f7 b5bf
00000170: 7c35 26bf e74b a6be 90ca fdbf ddd8 0dc0
00000180: 3a35 00c0 bb86 0ec0 a504 31bf 47e3 83bf
00000190: 9a90 cabf 9a73 11c0 99b3 2bc0 1447 efbf
000001a0: e9a3 fcbf 66dd 48be d6fe 2ebf 236c c7bf
000001b0: 709f f7bf e992 38c0 ab19 35be 1911 04c0
000001c0: 74fe b4bf 8fe9 51bf 3211 b2bf cc36 94bf
000001d0: 0528 93bf b03c 12be 5c82 71bf 952e 24c0
000001e0: 1b33 99bf 8737 e0bf 1244 33c0 7d83 eebe
000001f0: 0a56 d4bf 61e1 e7bf e9cc e7be 35fb 39c0
-2.166906 -1.1103226 -1.9133302 -1.7520444 -1.114587 -1.5930616 -2.2406101 -2.3776033
-3.0058193 -1.9480711 -0.42896283 -1.9300684 -2.0771124 -0.6265013 -2.979782 -1.557553
-2.3457162 -1.5954839 -1.2254481 -0.50284094 -2.3137877 -3.174442 -0.98069364 -1.6624707
-1.8508856 -1.1836156 -1.4791168 -1.7622266 -1.831549 -3.0925798 -2.0071704 -3.008657
-3.0820067 -0.3877542 -1.2947837 -1.1653585 -1.3412942 -0.36900857 -0.6600106 -0.89390445
-2.3214574 -1.5532664 -1.5708351 -1.289332 -1.5849833 -3.1955788 0.08549109 -1.0750782
-2.0163565 -2.5284042 -2.1085935 0.08327787 -2.337665 -1.7002907 -2.421557 -0.17724887
-3.7683496 -0.631433 -2.4851224 -0.6443449 -2.6181378 -1.0639145 -2.1777856 -1.7450244
-0.9406264 -1.7343018 -1.4409785 -2.302862 -0.62322664 -2.1226945 -1.7928292 -1.0955657
-2.6639807 -0.33928707 -1.1222746 -2.7580295 -0.4660733 -0.50894576 -2.123958 -0.6871213
-1.6536568 -2.1640644 -2.0070841 -0.6934752 -2.242184 -1.8926564 -0.7104219 -0.7902065
-1.7705096 -2.3478484 -0.8978533 -1.4216295 -0.6492536 -0.32479784 -1.9827442 -2.2163613
-2.0032487 -2.2269733 -0.6914771 -1.0303735 -1.5825379 -2.2726808 -2.6828368 -1.8693566
-1.9737521 -0.19615707 -0.683576 -1.5579876 -1.9345531 -2.8839667 -0.17685573 -2.0635436
-1.4140153 -0.8199701 -1.3911498 -1.1579223 -1.1496588 -0.14280963 -0.9433954 -2.5653431
-1.1968721 -1.7516946 -2.8010297 -0.46584693 -1.6588757 -1.8115655 -0.45273522 -2.9059575

sample_multi_head_attention_1/dense_9/BiasAdd/ReadVariableOp f4 [8]
00000000: 32e8 ca3d 4d25 803d 0a5e 1bbe ce94 0bbe
00000010: 445d 613e 5a79 873d 56cb 283d e5f9 f8bd
0.09907569 0.062571146 -0.15172592 -0.13630983 0.22008234 0.06614943 0.04120954 -0.121570386

sample_multi_head_attention_1/dense_8/BiasAdd/ReadVariableOp f4 [8]
00000000: 4418 a2be e0d6 cc3e c61d b13d c5e2 05be
00000010: 47f3 8ebd 8f1a ae3e b5df e2bd 8dd1 3a3e
-0.31659138 0.40007687 0.08648257 -0.13074787 -0.06979995 0.34004638 -0.11077825 0.18244

sample_multi_head_attention_1/dense_7/BiasAdd/ReadVariableOp f4 [8]
00000000: 3197 42ba 9a75 633a e42a 583a 0beb 823a
00000010: f4ff 2aba 8346 0eba 2040 d23a 0993 d439
-0.0007423042 0.0008676887 0.00082461373 0.0009988261 -0.00065231253 -0.0005427377 0.0016040839 0.0004054534

sample_multi_head_attention_1/dense_6/BiasAdd/ReadVariableOp f4 [8]
00000000: b2a6 e3bc 41b3 bbbe 4f91 b9be e743 74be
00000010: 88f8 7fba 1bc3 2abf b678 843f ec45 a63c
-0.027789447 -0.36660197 -0.36243674 -0.23854028 -0.0009764512 -0.6670396 1.0349338 0.020297013

layer_normalization_3/batchnorm/ReadVariableOp f4 [8]
00000000: 58db 98be 389d 1bbd cdaf 65bd 5b70 943c
00000010: 1ed9 ebba d5ce 9e3d 9abc 3d3e d437 153e
-0.29854846 -0.037991732 -0.05607586 0.018119982 -0.0017993783 0.07754294 0.18528977 0.14572078

layer_normalization_3/batchnorm/mul/ReadVariableOp f4 [8]
00000000: 0c35 173f 225d 293f 94d4 0d3f d6e1 143f
00000010: ba4e 943e 6e1c 3e3f 9faf 1d3f 7e96 2d3f
0.5906532 0.66157734 0.55402493 0.581571 0.28966314 0.7426213 0.615961 0.6780776

layer_normalization_2/batchnorm/ReadVariableOp f4 [8]
00000000: c7a8 e33f 4f80 63bf 25ad f4be 3005 c8be
00000010: df5c 9a3e 92e0 a8bf 51fb 8fbf a161 4ebf
1.7785882 -0.8886766 -0.4778835 -0.39066458 0.3014898 -1.3193533 -1.1248571 -0.8061772

layer_normalization_2/batchnorm/mul/ReadVariableOp f4 [8]
00000000: ff0d 1040 cc9d 8d3f 627b e03f abed c63f
00000010: ded6 933f 77d4 b13f 24cd 8b3f f99d e93f
2.2508543 1.1063781 1.7537653 1.554128 1.1549947 1.3892964 1.0921979 1.8251334

sequential/dense_5/BiasAdd/ReadVariableOp f4 [8]
00000000: 0ddc 4cbd 66b9 1c3e 0a19 f33e cbb7 edbe
00000010: 06db f4be 42b9 193f 6b6e 993e 537a 84be
-0.050014544 0.15305099 0.4748004 -0.46429285 -0.47823352 0.60048306 0.29967055 -0.25874576

sequential/dense_4/BiasAdd/ReadVariableOp f4 [128]
00000000: 06cc b5bf 7468 95bf cc2f 5abf 49f9 fabf
00000010: 11a6 21bf 05a7 67be 33c1 44c0 7d7d ebbf
00000020: 9044 9ebe 8d3a dbbf 3917 efbf 8baf 13c0
00000030: 7a56 99be e781 2dbf ec38 2ac0 3b76 78bf
00000040: 7bfc b5bf cd82 5fbf c7b0 0dc0 7963 26c0
00000050: 3e35 c8bf 31e6 72bf 1766 d5bf 73f2 fdbf
00000060: 28bb 2ec0 f7eb 31bf 4821 51bf 4a70 91bf
00000070: 1d04 b5bf 278b a63e bcae 16bf 5d72 96bd
00000080: 0cf3 abbf 7f26 2ac0 35bf f1bf 99e1 5dc0
00000090: eb10 45c0 64ea 09bf 29d5 a7bf 771f 12c0
000000a0: 75fe cbbf bbce acbf 70dd 0ec0 b588 20c0
000000b0: 4ab4 84bf 2a7d 7ebf e2ab 32bf 4b02 12bf
000000c0: 2b93 c9bf 4801 c7bf 01f0 73bf 01ad f0bf
000000d0: 4116 2ac0 17bb 1ac0 9e2d b5bf 1619 c3bf
000000e0: 64ca 21c0 f9fd e2bf 551e 88bf d813 78bf
000000f0: a4f1 26c0 81c5 e0bf 51f5 fbbf 193b cabe
00000100: 4831 01bf 1a0c cebf 57f2 29c0 1626 e3bf
00000110: 10fa 72bf 8ba0 02bf 1288 04bf 77b5 8ebf
00000120: dd70 b7bf e65c a8bf 21a2 1dc0 1dc7 a4bf
00000130: e943 97bf b875 e8bf fa78 bbbf a4bb e7bf
00000140: c618 c8bf 6914 35c0 1bb9 febf 7ff5 9bbf
00000150: 6bcb 04c0 df9e 57bf d3ec 25c0 1848 77bf
00000160: ca14 ddbe 8db6 e6bf 7b40 52bf f0e5 28c0
00000170: a294 a0bf 4382 d9bf 6a47 9cbf 0174 783e
00000180: 64d8 e1bf b2aa acbf b379 01c0 0a6f 49c0
00000190: ab51 22bf 4a60 41bf 1648 1ac0 c82f 7cbf
000001a0: bc26 2ec0 2847 aabf a54c 5ebf 6aae d0bf
000001b0: 14e6 c3be 45dc d4bf a3a7 07c0 ce4a c8bf
000001c0: 912d 99bf 73d1 13c0 2c46 88bd 5113 b8bf
000001d0: e990 babf 422e c3bf 7cd9 22c0 0769 dfbf
000001e0: 96db 8cbf c641 77bf ef44 debe 86f8 78bf
000001f0: 3af5 00c0 ec39 f1bf fd83 0dbf d767 36c0
-1.4202888 -1.1672502 -0.8522918 -1.9607326 -0.6314402 -0.22622307 -3.074292 -1.8397671
-0.30911684 -1.7127243 -1.8678962 -2.3075893 -0.2994879 -0.6777634 -2.6597242 -0.97055405
-1.4217676 -0.8730896 -2.2139146 -2.5998213 -1.5641248 -0.94882494 -1.667178 -1.9839615
-2.730173 -0.6950068 -0.8169141 -1.1362393 -1.414188 0.3252804 -0.58860373 -0.07346032
-1.3433547 -2.6585996 -1.8886477 -3.4668944 -3.0791576 -0.53873277 -1.3111926 -2.2831705
-1.5937029 -1.3500589 -2.2322655 -2.508344 -1.036752 -0.99409735 -0.6979352 -0.5703475
-1.5748037 -1.5547266 -0.9528809 -1.8802797 -2.6576083 -2.417669 -1.4154546 -1.5242031
-2.527978 -1.7733756 -1.0634257 -0.9690528 -2.6084986 -1.7560273 -1.968424 -0.39498213
-0.5046582 -1.6097443 -2.6554163 -1.7745998 -0.94912815 -0.5102622 -0.51770127 -1.1149129
-1.4331318 -1.315335 -2.4630206 -1.2873265 -1.18176 -1.8160925 -1.4646294 -1.8104138
-1.563256 -2.8293707 -1.990024 -1.2184294 -2.0749156 -0.84226793 -2.5925796 -0.9659438
-0.43179923 -1.802446 -0.8212964 -2.6390343 -1.2545359 -1.6992878 -1.2209294 0.24263002
-1.7644162 -1.3489592 -2.023053 -3.1474023 -0.63405865 -0.7553755 -2.4106498 -0.9851041
-2.7211142 -1.3302965 -0.868357 -1.6303227 -0.38261473 -1.6629721 -2.1196067 -1.5647829
-1.1967031 -2.3096588 -0.06654009 -1.4380895 -1.4575473 -1.5248492 -2.5445242 -1.7453927
-1.1004512 -0.9658474 -0.43411967 -0.97254217 -2.0149674 -1.8845801 -0.55279523 -2.850088

sample_multi_head_attention/dense/BiasAdd/ReadVariableOp f4 [8]
00000000: c0c3 243d 4c9c d7bc b58b ee3e 6f05 41bc
00000010: e090 b0be f285 e2bd 30f2 2cbd df1c c03e
0.040225744 -0.026319645 0.46590963 -0.011781081 -0.3448553 -0.11060704 -0.042223155 0.37522027

sample_multi_head_attention/dense_3/BiasAdd/ReadVariableOp f4 [8]
00000000: 085b c9b9 9b0d cb3d af7d 06bd a298 013c
00000010: 5027 c13c 79c4 b6bc 1090 5d3d 457f aabb
-0.0003840553 0.099147044 -0.032834705 0.007909926 0.023578316 -0.022310482 0.054092467 -0.00520316

sample_multi_head_attention/dense_2/BiasAdd/ReadVariableOp f4 [8]
00000000: acc2 cd3c b782 d43d 0807 edbd dba4 a3bd
00000010: 302e e0bd bd4e c33c 295f 053d b40a 943e
0.02511724 0.103764944 -0.11573607 -0.07990428 -0.109463096 0.023841256 0.032561455 0.28914416

sample_multi_head_attention/dense_1/BiasAdd/ReadVariableOp f4 [8]
00000000: 2fea aab8 834c 8838 c162 513a b9f0 1939
00000010: fda2 a83a 8ac2 4bb9 84e3 233a cd2d 8aba
-8.149852e-05 6.499237e-05 0.0007987433 0.00014680893 0.0012865957 -0.0001943206 0.0006251859 -0.0010542214

layer_normalization/batchnorm/ReadVariableOp f4 [8]
00000000: 134e bc3e 5393 943e d443 0040 09c8 af3d
00000010: c9a7 a63f 6c71 87be 19db 9b3f a76f 2cbd
0.36778316 0.2901865 2.00414 0.085830756 1.3019954 -0.26453722 1.2176238 -0.042098667

layer_normalization/batchnorm/mul/ReadVariableOp f4 [8]
00000000: 2f15 9c3f 5b02 743f b632 b93f 02a6 3f40
00000010: 8967 f83f eeb4 a63f 17c2 4b3f 7796 8f3f
1.2193965 0.95316094 1.4468601 2.9945073 1.9406596 1.3023965 0.7959303 1.1217793

layer_normalization_1/batchnorm/ReadVariableOp f4 [8]
00000000: 25ba fe3c 9d77 cd3c 59dc cbbe 6826 5fbd
00000010: ff34 f1bd e38a ca3e e050 dabd e6ac c53e
0.03109462 0.02508145 -0.3981655 -0.054479986 -0.11777686 0.39559087 -0.10659957 0.38608474

layer_normalization_1/batchnorm/mul/ReadVariableOp f4 [8]
00000000: 0773 543f eb8e 063f cc27 683f 61a4 463f
00000010: 9c42 c43e def7 243f e8ee b23e 0729 713f
0.8298802 0.52561826 0.90685725 0.7759457 0.3833207 0.64440715 0.34947896 0.9420323

model/layer_normalization_6/mul/ReadVariableOp f4 [8]
00000000: f41f ca3f d90d 54bc 2937 e53f f0a6 6940
00000010: e512 3740 efbf ab3f 97d1 82bb 79c5 c23f
1.5791001 -0.012942755 1.7907459 3.650814 2.8605282 1.3417948 -0.00399227 1.5216514

model/layer_normalization_6/add/ReadVariableOp f4 [8]
00000000: 575a 5cbf aad9 4abb 6c27 ecbe a202 aebe
00000010: 9593 a53e 727d ce3e 16ad f5b9 d2d0 4b3f
-0.8607535 -0.0030952492 -0.46123827 -0.33986384 0.3233916 0.40330082 -0.00046859 0.7961551

model/dense_49/BiasAdd/ReadVariableOp f4 [3]
00000000: 68e5 5c3e 13aa 1f3f 7d3e ad3e
0.21571887 0.6236889 0.33836737

model/dense_48/BiasAdd/ReadVariableOp f4 [32]
00000000: 9e71 903c 1c70 123a 8bc4 e4bb 345a 773c
00000010: 8e88 213c e627 7a3c ab70 2d3c 5a5b 03bc
00000020: 503e 8e3c 1e9e 763b ff33 ba3c 3d62 22bc
00000030: 0524 0abc b14a 103c 02a0 d1bb 7e99 89bb
00000040: 15f9 933b 4f8e c4bb d036 3438 7cd4 363a
00000050: 76aa beba f9d7 dabb 8644 adb9 72c5 6cbc
00000060: dfc7 b03c 12d8 b73c 9153 28bc 1ef4 14ba
00000070: 967e 38ba bfa7 5a3c 5dbc 0bbb 4655 813c
0.017632302 0.00055861636 -0.0069814376 0.01509719 0.009859217 0.015268302 0.010585944 -0.008017385
0.017363697 0.0037630866 0.022729872 -0.009911117 -0.008431439 0.00880687 -0.0063972482 -0.004199206
0.004515777 -0.00599841 4.2966392e-05 0.00069744117 -0.0014546651 -0.006678578 -0.00033048185 -0.0144513715
0.021579681 0.022441898 -0.01027383 -0.0005682128 -0.0007037906 0.013345658 -0.002132199 0.015787732

sample_multi_head_attention/dense/Tensordot/MatMul1 f4 [8, 8]
00000000: 9249 a63e 62eb bcbd 1c07 b1be bfc2 ce3e
00000010: a48f 163e 2d47 51be 2459 fb3d c275 ae3e
00000020: c013 a7bf 2be9 0fbf 11cb d23f 32e9 f4be
00000030: 22d7 8ebf 18ce 8fbe 737b 33be 45e5 89be
00000040: 6a6e 91bf 62b9 25ba 4360 ca3f 6f7e 143f
00000050: c4ab cbbf a468 c9bf e77f 433e fc4d 823f
00000060: b568 abbe 8042 2abe 1106 8e3e 3278 0dbf
00000070: 843f 9f3e 0fa1 06bf 90a9 4abc 2953 91be
00000080: 0e45 9fbf 11a8 eebc a920 8e3f f173 443f
00000090: b38f c13d 25b2 91bf 0392 f4bd ce11 5b3f
000000a0: 5c05 cbbe 4d8f 533f df6c 3e3f 9560 7f3e
000000b0: bd29 64bf 134a e0be b8e2 26be ca81 d13e
000000c0: 8d0a 753f 8455 9e3e 171a a0bf 7746 093f
000000d0: 14e0 5c3f 8e59 d93d 3f55 cfbd f751 823e
000000e0: 3893 b03f 78ae 0cbd 4358 a4bf 7565 f83f
000000f0: 9f58 d83e e88c b4bf 60f2 ac3d adaa f73f
0.32478005 -0.09224583 -0.34575737 0.40382954 0.14703232 -0.20437308 0.122728616 0.34074217
-1.3052902 -0.5621516 1.6468221 -0.47834164 -1.1159403 -0.28086925 -0.17527561 -0.2693273
-1.1361821 -0.00063218747 1.5810627 0.5800542 -1.5911794 -1.5735059 0.1909176 1.0180049
-0.33478323 -0.1662693 0.27739003 -0.5526153 0.31103146 -0.52589506 -0.012369528 -0.2838376
-1.2442949 -0.029132875 1.1103717 0.7673941 0.094512366 -1.138249 -0.11941912 0.8557404
-0.39652526 0.82640535 0.74384874 0.24939187 -0.8912619 -0.43806514 -0.16297424 0.40919334
0.95719224 0.30924618 -1.2507962 0.53623146 0.86279416 0.10612784 -0.10123681 0.2545316
1.3794928 -0.034346074 -1.2839435 1.9405962 0.42255113 -1.4105501 0.08444667 1.9348961

sample_multi_head_attention/dense_1/Tensordot/MatMul f4 [8, 8]
00000000: b53e 7bbe f249 54be b0fc f7bd c695 ba3d
00000010: bf9e 23bf cf4f 553f ba46 113e b5cc babe
00000020: 212a bb3c 8f6f 7abd 091f 8e3e 2764 81be
00000030: bb91 b53e 94d9 29bd 6a07 8cbd 1a5a ac3e
00000040: a80d 8d3e 8f29 043e 8a4d e43e 0bb9 30be
00000050: bdb1 a4bc 6318 583e 69ef f2bc f7e7 23bd
00000060: 63e2 6d3e ab3d 32be e632 33bf 9faa 183f
00000070: 120b 3abe e344 37bd 1f45 2ebe e9e5 183e
00000080: b224 56be 5d0e b2be f7a0 0d3f c77c 84bf
00000090: de4f 3d3f 606e 49bf 6c56 b1be 1477 953f
000000a0: 7414 413f be09 4a3f 0814 8ebe 1391 283f
000000b0: 8d78 f33e 3f7f f2bc 245e 9fbe a2a9 f43e
000000c0: 352e 073d 05d9 74be ef04 babe 6ca3 80bd
000000d0: 73e3 1ebf 72cc 983f cde4 823b 464c 05bf
000000e0: 746b 163f 04f7 b83e 0790 20bf 456d b73e
000000f0: de3c 313d 230e 4ebe bd6f 1a3e e80f 8d3f
-0.2453564 -0.20731333 -0.12108743 0.09110598 -0.639141 0.83324903 0.14187136 -0.36484304
0.022847237 -0.061141547 0.27758053 -0.25271723 0.35462746 -0.041467264 -0.068373516 0.33662492
0.2754948 0.12906478 0.44590408 -0.17258088 -0.020104283 0.21103053 -0.029655175 -0.04001614
0.23230891 -0.17406337 -0.6999954 0.5963535 -0.18168285 -0.04474343 -0.17018555 0.14931454
-0.20912436 -0.34776583 0.5532374 -1.0350579 0.7394999 -0.78684044 -0.34636247 1.1676965
0.75421834 0.78921115 -0.27749658 0.65846366 0.4755291 -0.029601691 -0.3112651 0.4778567
0.03300305 -0.23910911 -0.3633189 -0.0628117 -0.6206581 1.1937392 0.0039945603 -0.5206951
0.5875771 0.36125958 -0.6271977 0.35825554 0.043270938 -0.2012258 0.15081687 1.1020479

sample_multi_head_attention/dense_2/Tensordot/MatMul f4 [8, 8]
00000000: 2086 f83e 750d 5bbe f083 87bf 8b32 403d
00000010: 6bd5 0b3f 2d64 b5bf 0e08 cabe a3b5 953e
00000020: b26c 853d a2e7 e03a 9627 d6be 6feb d4be
00000030: 1a53 3d3f 9a58 03bf 6313 8dbd 42a4 dd3e
00000040: ddcd 003f c503 db3d 7677 0e3e e5a6 2abd
00000050: 1054 cd3c dedd 873e f136 143e c9ff 78be
00000060: cfc7 7ebd 20ee ddbd 49c6 bcbb 98e6 bb3b
00000070: 3d5c 933e 20f1 413f 9e1a 5cbe c8c3 2ebf
00000080: ed80 83be 3841 f23d c6cb 8dbe 9443 3c3f
00000090: 32dd 403c c94b 94bf 17e9 22bf 7631 f33e
000000a0: 46af cb3c 6a7f a0bc 7643 f4be ca2e fe3e
000000b0: 9201 20bf cb24 f03e a86d 2c3e 6e56 0dbd
000000c0: 317f 2e3f ebac 053f df91 47bf 92a4 d7be
000000d0: 93f2 cebe 9916 48be c8ab d33d ce53 fcbe
000000e0: 5589 1ebf 9719 08bd 1ab1 38bf dad3 953f
000000f0: 6caf 8dbf c70d 89bd 863a 003e dd3b 0dbf
0.4853983 -0.21391852 -1.0587139 0.0469232 0.54622525 -1.4171196 -0.3945927 0.2924014
0.065148726 0.0017158876 -0.41827077 -0.41585872 0.7395493 -0.5130707 -0.06888463 0.4328938
0.5031412 0.10694078 0.13912758 -0.04166307 0.025064498 0.2653646 0.14474083 -0.24316324
-0.06220227 -0.10836434 -0.005760942 0.005734276 0.2878131 0.7575855 -0.21494529 -0.6826749
-0.256843 0.11828846 -0.2769453 0.73540616 0.011771487 -1.1585628 -0.63636917 0.47498673
0.02486385 -0.019592006 -0.4770772 0.49645072 -0.62502396 0.4690307 0.16838706 -0.034506254
0.6816283 0.52216977 -0.77956957 -0.42117745 -0.40419444 -0.1953987 0.10335499 -0.49282688
-0.619283 -0.03322753 -0.72145236 1.1705277 -1.106916 -0.06692081 0.12522325 -0.5516947

sample_multi_head_attention/dense_3/Tensordot/MatMul f4 [8, 8]
00000000: da2c 8d3d 32e7 bbbe bae9 cabe a8a5 adbd
00000010: c686 febd 1bd6 39bc 6ec3 7fbd f601 ccbe
00000020: e32a afbe 50a1 883f 4cad 0ebd fb1e 1ebc
00000030: d1b8 b1bd 16c5 553d 7c58 80bf 0762 453f
00000040: a0ff bc3e 108d bc3d 6343 f83e 20e6 483e
00000050: a08a 0bbe b740 3ebc 0a6c 403e a6f0 043f
00000060: b088 77bd 1234 973d 7227 bf3d e959 d3bd
00000070: 5b68 363d 04a8 ac3c 7bdb 0f3e e36e 36be
00000080: a7a8 56bd 4ddc 6ebe 727a 93bd 6633 8c3e
00000090: 8ea2 8e3c 9003 1ebc 6339 0bbe c02f d63d
000000a0: 92aa d73d 1bb8 d53e ae4a b8be b09c 95be
000000b0: 3695 9bbe 2e5c b5bc 19d5 f23e 6fd8 a63e
000000c0: 73c2 983e a3c3 563f 9831 10bf 08d8 1cbe
000000d0: 6130 783f 3031 1c3c dfdb ce3e b743 563f
000000e0: dab9 8cbd 4f8d 13bb 47eb 803e a718 8b3d
000000f0: f808 8e3d 7251 d43a 7fd0 d4bd 8cab bebe
0.068933204 -0.36699826 -0.39631444 -0.08478862 -0.1242805 -0.011342551 -0.062442236 -0.39845246
-0.34212407 1.0674229 -0.034833238 -0.009650941 -0.08677829 0.05218991 -1.0027003 0.771027
0.36913776 0.09206593 0.48488912 0.19619036 -0.136271 -0.011612109 0.18791214 0.519297
-0.06043309 0.073829785 0.093336955 -0.103198834 0.044533115 0.02107621 0.14048569 -0.17815737
-0.052406933 -0.23326226 -0.07201089 0.27382964 0.017411496 -0.009644404 -0.1359611 0.10458326
0.105305806 0.41742024 -0.35994476 -0.29221106 -0.30387276 -0.022138681 0.47428206 0.32587
0.29835853 0.8389227 -0.56325674 -0.15316784 0.9694882 0.009533212 0.40402123 0.83697075
-0.06871386 -0.0022514646 0.25179502 0.067918114 0.069353044 0.0016198589 -0.1039133 -0.37240255

sequential/dense_4/Tensordot/MatMul f4 [128, 8]
00000000: 5a00 2dbf 7b21 64c0 f83c e7bf 5b66 88bb
00000010: 620d 673e 1058 bf3f 1468 483e f4bf f9be
00000020: 26ce 0f40 cd01 34bf 99cb a2c0 4b8c e5bf
00000030: 435b cabe 2902 a33f a404 55c0 1283 ad3f
00000040: fe9b 6abf 55b5 97bf 71be 763e dbf2 153d
00000050: e48c bbbf dbc1 a0be 0184 163f a59f ee3f
00000060: a018 51be f6c6 7ebc 8ada 38be e679 9ebf
00000070: 0db8 9c3e a1aa 1e3f 30b1 413f 1afc e1bf
00000080: 7403 873f ea7e 1c40 e911 48c0 251b b0be
00000090: bc4b febf 9a3d 5e3d 112f 3cbf 3f44 3dbe
000000a0: 087b 32bd c54f 883e 7fed 093e d2d3 f4bf
000000b0: 4d30 98bf 8d16 053f d2fd 31bf 19c5 b63f
000000c0: 8e3b 1bbf 6cc5 0e3f 8ecc ce3e bdde f9bf
000000d0: 94d8 56bf 6d9b 59bf 4d3d 0bbc d4a1 6bbf
000000e0: a3ca d83f d3f2 dabf 5dd9 1b3c 8eba cebf
000000f0: ec1f 21bf 1dda 88bf 56ad 85c0 2ebc 113f
00000100: 2c56 493d cd8c 16bd ff66 94bd 6570 4a3d
00000110: 551d 2bbd 8542 943d 8749 9cbc bad2 5f3d
00000120: 60af b2be 5841 e73f 6ff6 08c0 38ac 95bf
00000130: b37c c83e a72e c13f a847 15c0 d9bf c3bf
00000140: 61c4 d0be c3b0 8bbf 59d6 5fbf b943 b93f
00000150: 37a1 993d a1c4 b2bf cb1c 29bf 0dab 9e3d
00000160: c579 853e 82ee 603f c2d6 97be aa81 f4bf
00000170: 5e74 02c0 a69f a1be fc59 01c0 7336 203f
00000180: f284 b83f 256c 3dbf 154b 3bbf 4453 f7bd
00000190: 5ca8 9fbe d3b7 a03e db9b 02bf 9b3c 7fbf
000001a0: abe5 e6be 4f62 713e 7ae4 383f 25ae 0a3f
000001b0: d169 99bf 1077 c4bf 9a49 2abf af5d 2840
000001c0: 1e9d 283c eba2 a4bf 0a4a 123e eac5 cebf
000001d0: 6a91 33c0 1321 8dbd 4f3b e5bf 7448 ae3f
000001e0: 09ab 1bbf f532 e2bf f25c cc3f 6cf5 953e
000001f0: 748e 90bf ab70 5bbf 2a70 99be 02a1 9d3f
00000200: 327a a1bf f89a 2fbf 176d 5f3f 572e bb3d
00000210: 4e78 22c0 bf33 0140 aa1e 71be 61fb 1fbf
00000220: 65d5 8e3e 60aa 503f 737f eabf 2f2c 793f
00000230: 25c6 bfbf baa5 b23e 754f 33be 492e c83f
00000240: 1494 2a3d adc6 87bf dbe8 363d d2e7 22c0
00000250: dd6d a6bf 44f1 7f3f 3b9e 233e e123 adbf
00000260: 19a1 15c0 a9ca 753f 0d0f 16bd 460e c6be
00000270: 192c 72c0 6996 7cbf b43a c9bf 5226 8a3f
00000280: 21f1 aebf 799f 763e 9897 b23f e97e 453e
00000290: 6acd cebf 3209 0dbf f65f 9c3e fe79 913f
000002a0: 7e24 413e d9a8 ce3d 529f d0be 7466 e1bc
000002b0: 6c2c 14bf 1ece 2a3f a076 0abf e770 1d3c
000002c0: fe2b 0040 104f 0ebf eef7 b4bf 24e9 2d3e
000002d0: f6f3 63bf bd56 d6bf fdb2 49c0 6299 1e40
000002e0: 6f43 adbe 91bd 493f fa96 7d3e 036d b3bf
000002f0: d308 77c0 b7e5 80bf 1d39 3cbf 979d a13d
00000300: 7472 17bf 66f6 9d3f 7349 abbe fc2d 5ebf
00000310: d957 993e 522e 533d 085a 74bf ee8f 01c0
00000320: 45ae 4bbb 2c50 febd 6227 51be 7ca4 e9bc
00000330: 3ba7 93bd 9ebe 613e b5a9 b1be 8692 3abe
00000340: 3fab cebd 3fab 99be 6c86 eebe cbab 573d
00000350: 9683 d1be ab4b 15bc 7458 683d 07ec 33bd
00000360: 6299 6fbc db3e 88be 089c 36bf d62b 8a3e
00000370: 87e0 b8be d263 1c3f 131d 12bf 04a4 1cbe
00000380: 0914 0e3f e756 51c0 e4c2 c0bf 1536 083f
00000390: d520 65c0 ad3e e83f 09fa 21bf ac33 d93f
000003a0: a247 a03f 1b76 84bd ab16 ce3e cc38 babf
000003b0: 6dec ecbf b334 02bf a4fb 31be 32c3 0f3f
000003c0: 48c2 edbb 67b6 c93b 5932 b3bb 2f73 eb3c
000003d0: 2f4f 3a3d e393 473d cb3f 4cbd ebfa f5bc
000003e0: cc4e acbe 1913 9f3f 30ce 57c0 d905 80be
000003f0: da7a aebe 734e a03f cc8c 4cc0 c8b3 ec3f
-0.6757866 -3.5645435 -1.8065481 -0.0041625923 0.22563699 1.494875 0.19570953 -0.4877926
2.2469573 -0.7031525 -5.087353 -1.7933439 -0.39522752 1.2735034 -3.3284082 1.3555624
-0.91644275 -1.1852213 0.24096085 0.03660856 -1.4652371 -0.313979 0.5879517 1.864247
-0.2041955 -0.015550366 -0.18052116 -1.238095 0.3060917 0.6197911 0.7566099 -1.765506
1.0547929 2.4452462 -3.1260931 -0.3439571 -1.9866862 0.054257967 -0.7350932 -0.18483065
-0.043574363 0.2662336 0.13469504 -1.9127142 -1.188974 0.51987535 -0.69527924 1.42789
-0.6063775 0.5576999 0.40390438 -1.9521099 -0.8392422 -0.85002786 -0.008498502 -0.92043805
1.693684 -1.7105354 0.009512273 -1.6150682 -0.62939334 -1.0691563 -4.177409 0.56927764
0.049154446 -0.03675537 -0.072462074 0.049423594 -0.04177602 0.0723925 -0.01907803 0.054644324
-0.34899426 1.8066816 -2.140041 -1.1693182 0.39157638 1.5092362 -2.3324986 -1.5292922
-0.40774825 -1.0913318 -0.87436444 1.4473792 0.075014524 -1.3966256 -0.6605956 0.07747469
0.26069465 0.87863934 -0.29656035 -1.910207 -2.0383525 -0.31567115 -2.0211172 0.6258308
1.4415572 -0.7399314 -0.7316144 -0.120764285 -0.31183136 0.31390247 -0.51019067 -0.9970185
-0.45097098 0.23572658 0.7222363 0.54171973 -1.1985418 -1.5348835 -0.6651856 2.630718
0.010291366 -1.2862219 0.14286056 -1.6154149 -2.8057504 -0.06891074 -1.7908725 1.3615861
-0.60807854 -1.7671801 1.5965865 0.29288805 -1.1293473 -0.8571879 -0.29968387 1.2314761
-1.2615416 -0.6859584 0.8727583 0.09139698 -2.5385928 2.0187833 -0.23546854 -0.6249295
0.27897182 0.8150997 -1.8320144 0.97333044 -1.4982344 0.34892064 -0.17510779 1.5639125
0.041645125 -1.0607506 0.044655662 -2.5453992 -1.3002278 0.9997752 0.15978329 -1.3526574
-2.3379576 0.9601236 -0.036635447 -0.38682765 -3.7839415 -0.9866701 -1.572104 1.0792944
-1.3667337 0.24084271 1.3952513 0.19286694 -1.6156437 -0.55092156 0.30541962 1.1365354
0.18861577 0.10090799 -0.40746552 -0.027514674 -0.5788028 0.6672076 -0.5408726 0.009609438
2.002685 -0.5558939 -1.4138162 0.16983467 -0.8904413 -1.674522 -3.1515496 2.4781117
-0.3384051 0.7880488 0.24764624 -1.4017643 -3.8599136 -1.0070103 -0.7352465 0.07891386
-0.59159017 1.234082 -0.33454475 -0.86788917 0.29949835 0.051557846 -0.95449877 -2.0244098
-0.0031079215 -0.12417635 -0.2042518 -0.028520815 -0.07209631 0.22045371 -0.3469979 -0.18219957
-0.10091256 -0.30013463 -0.4658693 0.05265407 -0.40920705 -0.009112279 0.05672498 -0.043926265
-0.014623972 -0.26610455 -0.71331835 0.2698657 -0.361088 0.61089814 -0.57075614 -0.15296942
0.5549932 -3.270929 -1.5059476 0.5320752 -3.580129 1.8144127 -0.6327215 1.6968894
1.2521861 -0.06467839 0.4025167 -1.4548583 -1.8509651 -0.5086166 -0.1738115 0.5615722
-0.007255826 0.0061557773 -0.0054686484 0.028741447 0.04548567 0.04872502 -0.049865525 -0.030026874
-0.33653867 1.2427703 -3.3719597 -0.2500446 -0.34078103 1.2523941 -3.1960936 1.8492365

sequential/dense_5/Tensordot/MatMul f4 [8, 128]
00000000: 0d85 55be a70e 9840 9aef 053f c056 9d3e
00000010: 5cb8 b03f 9beb 9e3c b0c6 8f3e 3ee9 ea3f
00000020: e64c 9a3d 4d72 583f 8257 253d bcab 85bf
00000030: 6cac a63d 0bfa 4e3e 3499 26bf 2216 a8be
00000040: c851 4cbf 3317 863e dd61 b43f 49ce a4bf
00000050: e420 05bf 7c06 9cbd 4904 ef3e fe28 b33d
00000060: 33ef 183f 2c50 febc 50b1 9a3d eac5 9c3e
00000070: 048b 1340 a2c3 823e e995 723d 6ab4 06bf
00000080: d179 33bf d7ec e3bf ebb9 0c3f e3c8 6cbf
00000090: eb98 b9bf 1e31 5e3e 1bab ab3f 06c1 e7bd
000000a0: 9eee f33e 3d42 b1bd e988 ba3d 194f 383e
000000b0: 4f71 5e3f f4e7 4b3f 95fe dcbe a425 b13d
000000c0: 73fc cd3e 324b 1d40 3c49 09c0 d005 a2bd
000000d0: c817 1fbf 0d17 a6bf c190 2f3f 480d 50bf
000000e0: bf59 77bf a5b7 d8be a6e9 5bbe bb8f abbf
000000f0: 59fb 7c3f e770 803f ea78 97bf a871 3b3e
00000100: fcf9 debd 5802 9a3f fa3f f0bf 53a6 d93e
00000110: 9daf f43d 64e1 183e 4b39 013f 47b4 4dbf
00000120: 5589 7dbe 3f85 5f3e ab54 09bf ebfa 243f
00000130: 2337 1a3d e4f1 41be 3ce2 cc3d 1dd6 e4be
00000140: 5876 cebe 3416 953f 9cf6 a93d e93c a1be
00000150: 3029 2c3e 85cd 003e adc5 38be 31c1 27be
00000160: d461 75bc 62db d33f 4c71 cdbe 9cc2 e4bf
00000170: 129d 1b3e fe63 5abe 4d82 b2bf 2588 303d
00000180: f6a9 a43e 8697 26bf 715e ec3f 3968 75be
00000190: 4a2f dfbd 2708 ac3f f6ff 0fc0 700e d43d
000001a0: 2e32 5cc0 9d25 2cbe a7a8 9dbc 6a0f 95be
000001b0: 7f17 dd3f b4d7 a43d c878 1040 c5a8 5d3d
000001c0: c4ee c8be e0bf 4e3f 25df 1740 111e 883e
000001d0: e65d cabd c892 01bf 3b47 8f3f 2e5c d6bd
000001e0: 66fd 8bbf c985 9e3e 7746 59bd ccf8 03bd
000001f0: 359f 0e3d ee06 8b3f 4748 e8bd d38e a0bf
00000200: f2dd 933e 2c50 ddc0 b855 013e 107a 053f
00000210: dd95 893e 26a8 403f 9d20 33be 4ba7 89c0
00000220: fcdb e03d 32fa 36c0 e6fa 893e 74e4 a8bf
00000230: 19ae cf3e 4d03 fc3e 7da7 4fbf cd6d 0abd
00000240: ff3d 523e be9e 42bf 42bd 9fbe 997b 04c0
00000250: 800c eb3d eda0 21be c71a 513f df65 653f
00000260: 8296 f6bf 7f02 063e e746 9b3d 196e e3be
00000270: 5f97 f03f f547 5fbe 784c 023d 56db dd3f
00000280: 3421 ad3d 8cf5 c43f 271d 77c0 25ab a23f
00000290: e53c e7bf a166 53bf b192 e23b a208 de3e
000002a0: 6a64 c53f b100 92c0 3e5a f63d 4209 0abf
000002b0: 04b2 debe 97db 523e 1555 4640 9bc2 c8bd
000002c0: 2c61 8dbc 08a9 00be cd93 e1be 5abe 003e
000002d0: df35 99bf 4423 7cbf f015 80c0 0bb1 2cc0
000002e0: 0f24 fa3f 8f30 85bf 8beb 24be a270 2e40
000002f0: 911e 7fbf e0a3 12be d834 c440 718c 88be
00000300: b69d 9dbd 1b07 8fc0 df48 4ebe 7eab 993e
00000310: f3e6 19c0 97c3 3abe ae7e 353e 07ed 0f40
00000320: 5b3e 8b3f db66 9a3f 8091 79bf f2f0 03be
00000330: d8f1 d640 b971 9abd 6de4 0abf 1570 33c0
00000340: 0d9d 2fc0 c824 ebc0 bb8b 753f 3448 7f3e
00000350: 32ec 2f3f 650a 25bf cd99 5e3e 167c 92bf
00000360: dd10 5b3c ddcf 7bc0 d017 26bf b949 ecbf
00000370: 0b09 303e dad5 cabe 6b4d 0141 3cbb 1b40
00000380: c6b8 f03e 55e4 72be fcfb 61c0 23e4 f1be
00000390: 475f d0bd 9cc1 443d 6267 623e d56f 45be
000003a0: 5fb8 c03e d507 41be 744c 5a3c d9c2 3a3f
000003b0: b91b 3c40 7186 da3f d7e6 c5bd a4aa 0d3f
000003c0: 4747 09be fec7 b6c0 1b09 e0bf ba41 f6be
000003d0: 3892 dc3e aa0a 41c0 82f3 bec0 860c be40
000003e0: 92b2 5dbf 1860 bbbf 9b44 a13d a8a2 f6be
000003f0: fb90 9bbf dcb8 b8be a457 35bd cd92 4b40
-0.20851536 4.7517886 0.5231873 0.30730247 1.3806262 0.019399455 0.28081274 1.835243
0.075341985 0.8454941 0.040366657 -1.0443034 0.081383556 0.20212571 -0.6507752 -0.32829386
-0.7981229 0.26189575 1.4092366 -1.2875453 -0.5200331 -0.07618424 0.46682957 0.08748053
0.5973999 -0.031044088 0.07553351 0.30619746 2.3053598 0.2553988 0.059224997 -0.5261904
-0.7010775 -1.7806653 0.5497119 -0.9249403 -1.4499792 0.21698424 1.3411592 -0.11316113
0.47642988 -0.08655212 0.09108145 0.17998923 0.86891645 0.7965081 -0.4316298 0.086497575
0.40231666 2.4577146 -2.1450949 -0.07911265 -0.6214566 -1.2975785 0.6858025 -0.81270266
-0.96621317 -0.4232761 -0.21475849 -1.3403238 0.98821026 1.0034455 -1.1833775 0.18305075
-0.108875245 1.2031965 -1.8769524 0.42509708 0.11947558 0.1492973 0.5047805 -0.80353206
-0.2475942 0.21828173 -0.5364482 0.6444537 0.03765024 -0.1893993 0.10004088 -0.44694605
-0.40324664 1.1647401 0.0829899 -0.31491783 0.16812587 0.125784 -0.18044157 -0.1638229
-0.014976937 1.6551325 -0.401255 -1.787189 0.15196636 -0.21327206 -1.3946015 0.043098588
0.3216092 -0.65074956 1.8466321 -0.23965539 -0.108976915 1.3439988 -2.2499976 0.10354316
-3.4405627 -0.16811223 -0.019245459 -0.29113322 1.7272795 0.080489546 2.257372 0.05411603
-0.39244664 0.8076153 2.3729947 0.2658544 -0.09881191 -0.50614595 1.1193613 -0.10466801
-1.0936706 0.30961445 -0.053045716 -0.032219693 0.0348198 1.086149 -0.11341911 -1.2543586
0.28880268 -6.9160366 0.12630355 0.5213938 0.2687215 0.75256574 -0.1749291 -4.3016715
0.10979459 -2.8590207 0.26949233 -1.3194718 0.40562513 0.49221268 -0.8111494 -0.03379612
0.20531462 -0.7602347 -0.3119908 -2.0700438 0.114769936 -0.15784045 0.81681484 0.8960857
-1.9264681 0.1308689 0.07581883 -0.44419935 1.8796195 -0.21804793 0.031811208 1.7332561
0.084535986 1.5387435 -3.8611543 1.2708479 -1.8065459 -0.82578474 0.0069144596 0.4336596
1.5421269 -4.5625844 0.12028931 -0.53920376 -0.4349519 0.2059158 3.098943 -0.09802743
-0.01725825 -0.1256448 -0.44058076 0.12572613 -1.1969565 -0.9849131 -4.002678 -2.6983058
1.9542254 -1.0405444 -0.16105478 2.7256246 -0.99656016 -0.14320326 6.1314507 -0.26669648
-0.076960966 -4.4696174 -0.20144986 0.3001365 -2.404721 -0.18238674 0.17724106 2.248842
1.0878404 1.2062639 -0.9748764 -0.12884882 6.717022 -0.07541222 -0.542548 -2.803716
-2.7439606 -7.34824 0.95916337 0.24929887 0.6871978 -0.64468986 0.21738358 -1.1444118
0.01337072 -3.934562 -0.64880085 -1.8459998 0.1719095 -0.3961628 8.081401 2.4333029
0.4701597 -0.23719914 -3.531005 -0.47244367 -0.10174423 0.048036203 0.2210975 -0.19280942
0.37640664 -0.18850644 0.013323892 0.72953564 2.939192 1.7072278 -0.0966317 0.553385
-0.13406096 -5.711913 -1.7502779 -0.4809702 0.43080306 -3.016276 -5.967225 5.9390287
-0.866006 -1.46387 0.078744136 -0.48170972 -1.215362 -0.36078537 -0.044273034 3.180835

sample_multi_head_attention_1/dense_6/Tensordot/MatMul f4 [8, 8]
00000000: 16e0 81be 001d bd3e 5c09 c4bc 3db4 703e
00000010: 7273 393e 358d d7be 4d8a 0fbd fbcc afbd
00000020: fff5 27be 2184 15be f533 2cbe 503d 96bd
00000030: 93be 043d 7deb 5e3e 1fc7 47bd 9d12 29be
00000040: 629b 4ebe 7594 753e c5f6 e63e 0e09 f93e
00000050: 5587 50bf 1e00 3c3f 7791 ecbe 2a93 b6be
00000060: ae7a 37bf 6b8c 3b3e a1ad ae3e 9056 1a3f
00000070: 1c9c c5be 5c26 2cbf 7306 b83d b818 413f
00000080: 7280 423f b1e3 46bf debe aebd b508 fa3d
00000090: 0ac2 d4be 9400 8d3e 4c7e 5dbd 6d06 1d3f
000000a0: c363 92be 3a61 4abe 05d1 35bf 87cf 2cbf
000000b0: 3e3c ad3e 8b21 cf3e f201 aa3e 0e38 bb3e
000000c0: b400 723f 8e4e b4be 927d 93be ef54 3a3e
000000d0: 122e 2a3e 4c64 64bf 01df fdbe 898e 80bd
000000e0: 5b4f 2bbe 65f9 3abf ed96 923f dd5d 7e3e
000000f0: cabe 18bf 0399 ec3e 47be 80bd 381c efbe
-0.25366277 0.36936188 -0.023930244 0.23506255 0.18110445 -0.4209992 -0.035044003 -0.08584019
-0.16402434 -0.14601184 -0.16816695 -0.07335913 0.03240831 0.21769519 -0.04877388 -0.16511007
-0.20176461 0.23982413 0.45110145 0.4863972 -0.814565 0.7343768 -0.4620473 -0.35659152
-0.7167157 0.18315284 0.34116843 0.60288334 -0.38595665 -0.6724603 0.08985605 0.7542834
0.7597724 -0.7769118 -0.08532499 0.12208692 -0.4155429 0.27539504 -0.054075524 0.6133793
-0.28591737 -0.19763651 -0.71022063 -0.6750416 0.33835024 0.4045528 0.3320461 0.36566204
0.9453232 -0.35216182 -0.2880674 0.18196462 0.16619137 -0.8921554 -0.495842 -0.062771864
-0.1672949 -0.73036796 1.1452309 0.24840494 -0.5966612 0.4621049 -0.062862925 -0.46701217

sample_multi_head_attention_1/dense_7/Tensordot/MatMul f4 [8, 8]
00000000: 78db b9bd 26b4 693e ccf3 bcbd ec99 563e
00000010: 7e26 3fbe e02e 803e 3319 f73e 9132 d4be
00000020: a74a b23e 2bce 38be 300e 12bf b2a2 763f
00000030: 370b 7dbd 0248 eebd 4878 8ebf 85fc a1bd
00000040: 8f0e 14bf e9d3 fd3e 6c07 843d 2daa ea3e
00000050: 4d53 8b3f 2f8d 903e 0433 9dbf d002 edbe
00000060: c6d7 533e b178 b53d eb0a d93e eda2 1d3f
00000070: ec6b 1fbe 5030 213e 917b 7bbf 2860 59be
00000080: 8ba8 08bf bc80 b7be 6dfe fa3e a8e9 483f
00000090: edd6 3d3e 8af5 b7be e0a3 dabe b5d5 1c3e
000000a0: d0be d53f ab2d 98be a477 71bf 3e43 84be
000000b0: bdc6 c13e fa51 e93e 2a94 f1bd d57c 01bf
000000c0: 472b 64be d35c 87be cad5 9f3e 5356 ef3f
000000d0: 7f93 2bbe 5d2a 5f3e e8a6 713c b8a9 a3bf
000000e0: aeac a4bd 1ae7 f2be 1d64 193c 4b65 9a3d
000000f0: 54c7 2340 2ab8 a9be 850d d4be f067 b3bf
-0.090750635 0.22822627 -0.09226188 0.20957154 -0.18667027 0.25035763 0.48261413 -0.4144483
0.3482258 -0.18047397 -0.570529 0.96342003 -0.061778273 -0.11634828 -1.1130457 -0.079094924
-0.57834715 0.49575737 0.06446728 0.4583296 1.0884796 0.28232715 -1.2281194 -0.46291208
0.2068778 0.08860911 0.42391142 0.6157673 -0.15568513 0.15741086 -0.9823542 -0.21228087
-0.53382176 -0.35840404 0.49022236 0.7848153 0.18539019 -0.3592952 -0.42703152 0.15315898
1.6698856 -0.29722342 -0.9432318 -0.25832552 0.37846938 0.45570356 -0.11795838 -0.50581104
-0.22282134 -0.26438007 0.31217796 1.8698219 -0.16755484 0.21793504 0.014749266 -1.2786169
-0.080407485 -0.47441941 0.009362248 0.07538851 2.559041 -0.3314832 -0.41416565 -1.4016094

sample_multi_head_attention_1/dense_8/Tensordot/MatMul f4 [8, 8]
00000000: a1cd cf3f 2e8c 4a3f 1267 15bf b8eb 44be
00000010: 7879 77bf eae0 8fbe e419 4c3e 53fe a83f
00000020: b514 c0bf 1b97 acbe 4011 c0bf 1507 37be
00000030: 5d28 d03d e517 573f da6d 0b3d 706d 293f
00000040: 7de1 3dbf c60f d53f 81c9 b63e 69e7 52bf
00000050: 6c37 023e d905 78bf 6102 e4be 6c0e 733f
00000060: 7ac5 1c3f cd0c 31bf 126d 9b3e 72aa 5c3f
00000070: 7b6b 6abf 613f f6bb e576 a6be cad4 bf3f
00000080: 0bff 7ebe 2b5b 86bf 8433 86be 1034 5a3f
00000090: 52ce 43be d065 433f 0eb2 fc3e 79bd b4bf
000000a0: 91e7 803e df5c 693f d0ff 1cbe 2630 643f
000000b0: c008 fbbf 07b1 47bf 85c3 a03e 9135 1f3f
000000c0: a99a a23f 4c94 d8be 74e6 7cbf 3b9e 543f
000000d0: c6e4 963e d86e aabe ed38 bf3d 410c 903e
000000e0: a244 da3f f390 a83d 8bb9 1f3f c28d e9be
000000f0: 920c 573f 5839 de3e c042 ce3d 100a f6be
1.6234628 0.7912015 -0.583604 -0.19230545 -0.9666972 -0.28101283 0.19931751 1.3202614
-1.5006319 -0.33709034 -1.5005264 -0.17873795 0.10163949 0.84020835 0.03404031 0.66182613
-0.7417219 1.6645439 0.3570061 -0.82384354 0.12716454 -0.9688392 -0.44533065 0.9494388
0.61238825 -0.6916016 0.30356652 0.8619758 -0.9157025 -0.0075148796 -0.32512584 1.4986813
-0.24901979 -1.0496572 -0.26211178 0.8523569 -0.19121674 0.7632723 0.49354595 -1.4120322
0.2517667 0.91157335 -0.1533196 0.8913597 -1.9612045 -0.780045 0.3139917 0.6219111
1.2703449 -0.42300642 -0.98789144 0.8305394 0.29471415 -0.33287692 0.093370296 0.2813435
1.7052195 0.08230772 0.6239249 -0.45615965 0.84003556 0.43403125 0.10071325 -0.48054552

sample_multi_head_attention_1/dense_9/Tensordot/MatMul f4 [8, 8]
00000000: b885 99bd af56 c93e 306a 173f 2acf 82be
00000010: 8336 b9bc dfed 3b3e 0fd2 983d 0ed5 6b3e
00000020: d8d1 93bf 192c b03f 3099 b9be 092b 4a3e
00000030: bb9d 35be 5a45 9cbf 0174 15bd cdfb b9be
00000040: c396 403e 59e8 ffbe 7d65 eabe 1bc8 103e
00000050: bb4b 96be 73f0 8abe 72f5 6fbe 9347 42be
00000060: daef 61bf f597 78bf b5ec 093f 1398 12be
00000070: f7c4 9e3e ecf1 8e3e f0a1 2f3f e791 933d
00000080: 6b23 663f f967 bcbe fd05 eebe 715d f5be
00000090: e48b 263d d2b4 923e c611 6fbe 822c cabf
000000a0: 7167 ae3e 4d9a 2f3f 9a9b 5abf 6ad3 7fbe
000000b0: fed4 2bbf ff62 d93e 6f3a bdbe 1d37 a43e
000000c0: de76 003f 7172 8c3e f0b4 623f 83c5 c63b
000000d0: 438a c83f dea4 04bd 8b10 1bbf f63d 2f3e
000000e0: f01a 07be fa48 8dbe 2dd4 97bd a604 573f
000000f0: 8f65 bfbc 4497 94be 271f b83d cd39 533e
-0.07496208 0.39323947 0.59146404 -0.2554868 -0.022609001 0.1835246 0.074619405 0.23030493
-1.1548414 1.3763458 -0.36249685 0.19742979 -0.1773595 -1.2208664 -0.036487583 -0.3632492
0.18807511 -0.49981955 -0.45780554 0.14138834 -0.29354653 -0.27136573 -0.23433474 -0.18972616
-0.8825661 -0.9710687 0.5387681 -0.14315824 0.31009647 0.27918947 0.6860647 0.07205563
0.89897794 -0.36798075 -0.46488944 -0.47922853 0.040660754 0.2865358 -0.23346624 -1.5794833
0.34063295 0.6859482 -0.8539368 -0.24982992 -0.67121875 0.4245834 -0.36958644 0.32073298
0.50181377 0.27431062 0.8855734 0.0060660257 1.5667194 -0.032383792 -0.6057212 0.1711348
-0.1319387 -0.2759474 -0.07413516 0.8399147 -0.023363857 -0.29021657 0.08990317 0.20627518
